…
ualize=False, warmup_bias_lr=0.1, warmup_epochs=3.0, warmup_momentum=0.8, weight_decay=0.0005, workers=8, workspace=None\nDownloading https://ultralytics.com/assets/Arial.ttf to '/root/.config/Ultralytics/Arial.ttf'...\n","output_type":"stream"},{"name":"stderr","text":"100%|â–ˆâ–ˆâ–ˆâ–ˆâ–ˆâ–ˆâ–ˆâ–ˆâ–ˆâ–ˆ| 755k/755k [00:00<00:00, 29.0MB/s]\n","output_type":"stream"},{"name":"stdout","text":"Overriding model.yaml nc=80 with nc=5\n\n                   from  n    params  module                                       arguments                     \n  0                  -1  1       928  ultralytics.nn.modules.conv.Conv             [3, 32, 3, 2]                 \n  1                  -1  1      9344  ultralytics.nn.modules.conv.Conv             [32, 64, 3, 2, 1, 2]          \n  2                  -1  1     26080  ultralytics.nn.modules.block.C3k2            [64, 128, 1, False, 0.25]     \n  3                  -1  1     37120  ultralytics.nn.modules.conv.Conv             [128, 128, 3, 2, 1, 4]        \n  4                  -1  1    103360  ultralytics.nn.modules.block.C3k2            [128, 256, 1, False, 0.25]    \n  5                  -1  1    590336  ultralytics.nn.modules.conv.Conv             [256, 256, 3, 2]              \n  6                  -1  2    689408  ultralytics.nn.modules.block.A2C2f           [256, 256, 2, True, 4]        \n  7                  -1  1   1180672  ultralytics.nn.modules.conv.Conv             [256, 512, 3, 2]              \n  8                  -1  2   2689536  ultralytics.nn.modules.block.A2C2f           [512, 512, 2, True, 1]        \n  9                  -1  1         0  torch.nn.modules.upsampling.Upsample         [None, 2, 'nearest']          \n 10             [-1, 6]  1         0  ultralytics.nn.modules.conv.Concat           [1]                           \n 11                  -1  1    345856  ultralytics.nn.modules.block.A2C2f           [768, 256, 1, False, -1]      \n 12                  -1  1         0  torch.nn.modules.upsampling.Upsample         [None, 2, 'nearest']          \n 13             [-1, 4]  1         0  ultralytics.nn.modules.conv.Concat           [1]                           \n 14                  -1  1     95104  ultralytics.nn.modules.block.A2C2f           [512, 128, 1, False, -1]      \n 15                  -1  1    147712  ultralytics.nn.modules.conv.Conv             [128, 128, 3, 2]              \n 16            [-1, 11]  1         0  ultralytics.nn.modules.conv.Concat           [1]                           \n 17                  -1  1    296704  ultralytics.nn.modules.block.A2C2f           [384, 256, 1, False, -1]      \n 18                  -1  1    590336  ultralytics.nn.modules.conv.Conv             [256, 256, 3, 2]              \n 19             [-1, 8]  1         0  ultralytics.nn.modules.conv.Concat           [1]                           \n 20                  -1  1   1511424  ultralytics.nn.modules.block.C3k2            [768, 512, 1, True]           \n 21        [14, 17, 20]  1    821343  ultralytics.nn.modules.head.Detect           [5, [128, 256, 512]]          \nYOLOv12s summary: 272 layers, 9,135,263 parameters, 9,135,247 gradients, 19.6 GFLOPs\n\nTransferred 629/691 items from pretrained weights\nFreezing layer 'model.21.dfl.conv.weight'\n\u001b[34m\u001b[1mAMP: \u001b[0mrunning Automatic Mixed Precision (AMP) checks...\nDownloading https://github.com/ultralytics/assets/releases/download/v8.3.0/yolo11n.pt to 'yolo11n.pt'..
…
